…
2505/2514 [============================>.] - ETA: 0s2514/2514 [==============================] - 4s 2ms/step
concatenating descriptors ...
dim(y)= (32, 4)
Model: "model"
_________________________________________________________________
 Layer (type)                Output Shape              Param #   
=================================================================
 input_1 (InputLayer)        [(None, 21, 21, 21, 1)]   0         
                                                                 
 conv3d (Conv3D)             (None, 21, 21, 21, 16)    448       
                                                                 
 average_pooling3d (AverageP  (None, 10, 10, 10, 16)   0         
 ooling3D)                                                       
                                                                 
 conv3d_1 (Conv3D)           (None, 10, 10, 10, 32)    13856     
                                                                 
 average_pooling3d_1 (Averag  (None, 5, 5, 5, 32)      0         
 ePooling3D)                                                     
                                                                 
 conv3d_2 (Conv3D)           (None, 5, 5, 5, 64)       55360     
                                                                 
 average_pooling3d_2 (Averag  (None, 2, 2, 2, 64)      0         
 ePooling3D)                                                     
                                                                 
 conv3d_3 (Conv3D)           (None, 2, 2, 2, 128)      221312    
                                                                 
 flatten (Flatten)           (None, 1024)              0         
                                                                 
 dense_2 (Dense)             (None, 4)                 4100      
                                                                 
=================================================================
Total params: 295,076
Trainable params: 295,076
Non-trainable params: 0
_________________________________________________________________
cnn model summary: None
Epoch 1/1000
 1/24 [>.............................] - ETA: 16s - loss: 1.6523 - mse: 1.6523
…
