conf. file sections: ['flags', 'input files', 'EnergyBarrier', 'neural net', 'ml mc']
concatenating descriptors ...
dim(y)= (1371, 1)
X.shape:= (1371, 9261)
Model: "model"
_________________________________________________________________
 Layer (type)                Output Shape              Param #   
=================================================================
 input_1 (InputLayer)        [(None, 21, 21, 21, 1)]   0         
                                                                 
 conv3d (Conv3D)             (None, 21, 21, 21, 64)    1792      
                                                                 
 average_pooling3d (Average  (None, 10, 10, 10, 64)    0         
 Pooling3D)                                                      
                                                                 
 conv3d_1 (Conv3D)           (None, 10, 10, 10, 128)   221312    
                                                                 
 average_pooling3d_1 (Avera  (None, 5, 5, 5, 128)      0         
 gePooling3D)                                                    
                                                                 
 conv3d_2 (Conv3D)           (None, 5, 5, 5, 256)      884992    
                                                                 
 flatten (Flatten)           (None, 32000)             0         
                                                                 
 dense (Dense)               (None, 1)                 32001     
                                                                 
=================================================================
Total params: 1140097 (4.35 MB)
Trainable params: 1140097 (4.35 MB)
Non-trainable params: 0 (0.00 Byte)
_________________________________________________________________
cnn model summary: None
Epoch 1/1000
 1/33 [..............................] - ETA: 41s - lo
…
