conf. file sections: ['flags', 'input files', 'EnergyBarrier', 'neural net', 'ml mc']
concatenating descriptors ...
dim(y)= (1371, 1)
X.shape:= (1371, 9261)
Model: "model"
_________________________________________________________________
 Layer (type)                Output Shape              Param #   
=================================================================
 input_1 (InputLayer)        [(None, 21, 21, 21, 1)]   0         
                                                                 
 conv3d (Conv3D)             (None, 21, 21, 21, 8)     224       
                                                                 
 average_pooling3d (Average  (None, 10, 10, 10, 8)     0         
 Pooling3D)                                                      
                                                                 
 conv3d_1 (Conv3D)           (None, 10, 10, 10, 16)    3472      
                                                                 
 average_pooling3d_1 (Avera  (None, 5, 5, 5, 16)       0         
 gePooling3D)                                                    
                                                                 
 conv3d_2 (Conv3D)           (None, 5, 5, 5, 32)       13856     
                                                                 
 average_pooling3d_2 (Avera  (None, 2, 2, 2, 32)       0         
 gePooling3D)                                                    
                                                                 
 conv3d_3 (Conv3D)           (None, 2, 2, 2, 64)       55360     
                                                                 
 flatten (Flatten)           (None, 512)               0         
                                                                 
 dense (Dense)               (None, 1)                 513       
                                                                 
=================================================================
Total params: 73425 (286.82 KB)
Trainable params: 73425 (286.82 KB)
Non-trainable params: 0 (0.00 Byte)
_________________________________________________________________
cnn model summary: None
Epoch 1/1000
 1/33 [..............................] - ETA: 29s - 
…
